model/vae_mnist.pth (torch, 362614 bytes, 33 tensors)

encoder.conv1.weight f4 [8, 1, 3, 3]
00000000: 0a1c 47be a494 fbbd 285b 0dbf 23ab 9abe
00000010: ca3e 2bbe 9523 7fbe dde1 cabd 12fa 413e
00000020: c2ac c93c 920a 4e3d af80 24be 6ae7 9e3c
00000030: 1079 08be a581 85be bc9b 05be 63f5 06bc
00000040: 1dca ebbd c806 bf3d 5743 e7bd 3d25 84bd
00000050: 295f c53d 9866 243e 25d3 b43d 531c 3f3e
00000060: 3bcf 74bd c345 023e 5b84 903e 712e 54be
00000070: 506b 57bd 6c11 99bd 22cb 2dbe 56ff 243e
00000080: 6e27 23be f7c9 d3be 51c3 c1be 83de 93be
00000090: 7b72 9ebd 6db7 923e d0d9 463e 7647 2c3e
000000a0: 9043 fa3d bc18 63bd 2e81 bdbc 7553 a8be
000000b0: e893 a3be 482a 903d 6a49 793e 920f 2d3e
000000c0: 969c 0a3d cfd1 6d3e 3ef8 d73d 0892 9d3e
000000d0: 84da 893e d698 9e3d b765 ca3e 4635 af3d
000000e0: 924f 0fbe e639 dabd 021d b8bc fc94 edbe
000000f0: 655f adbe cf09 78be e4ab 19bd d5ca d53d
00000100: 6daf 873e bf58 67bd 8829 963d 0ddd 193e
00000110: d4ba b73c b212 983e 529c 52bd a32b 60be
-0.1944429 -0.1228421 -0.5521722 -0.30208692 -0.16723171 -0.24915917 -0.09906361 0.1894305
0.02461851 0.05030305 -0.16064714 0.019397456 -0.13327432 -0.26075473 -0.13047689 -0.008237216
-0.115131594 0.09327465 -0.11292141 -0.06452415 0.09637291 0.16054761 0.08829335 0.18663149
-0.059767943 0.12721924 0.2822598 -0.20720841 -0.052592576 -0.07474026 -0.1697202 0.16113028
-0.1593301 -0.41365024 -0.37844327 -0.288807 -0.07736679 0.28655568 0.19419026 0.16824135
0.12219918 -0.05544351 -0.023132887 -0.32876173 -0.3194878 0.070393145 0.24344411 0.16900471
0.03384074 0.23224567 0.10545395 0.30775476 0.26924527 0.07743995 0.39530727 0.08555083
-0.13995197 -0.106555745 -0.02247477 -0.4640273 -0.33861843 -0.24222492 -0.037517443 0.10439078
0.26501027 -0.05648112 0.0733214 0.1502573 0.022427954 0.29701763 -0.05141861 -0.21891646

encoder.conv1.bias f4 [8]
00000000: 35f9 773e 857f 033f 8f3f a63e 4547 dd3e
00000010: aefa b13d 0f8d 52be 3770 323d 5f76 8dbe
0.24216159 0.51366454 0.32470366 0.43218437 0.086903915 -0.20561622 0.043564048 -0.27629372

encoder.conv2.weight f4 [16, 8, 3, 3]
00000000: 1f68 4abd bb7f af3d 68d3 e03d b5e5 9dbd
00000010: 3aeb 22be c62c 57be d6e0 a23c 5901 e2bc
00000020: 3fb5 593e c55d 0ebd 8744 593d 7b95 003e
00000030: 802f 223e 3f20 43bd d330 27be 6fad c93c
00000040: 571c 183e 0874 9f3d 812d bd3c 3fe7 a4bc
00000050: 7b62 203e 0261 f33c 855a 5cbd 1890 253d
00000060: e3ee bdbd 8ffb 98bd fd1f b1be 53f3 343a
00000070: 6313 a33c 221f 063c aeec 903c 5753 b13c
00000080: 7ae9 1fbe c58e 1a3e 6296 123d a10b 2a3e
00000090: b943 38bd bf55 a3bc d28b 01be 6f6e 9bbc
000000a0: d9ae 363d c40d 253e 2f0d 4ebe e382 1bbd
000000b0: c2e5 633e 1f07 cebc 6a61 3c3c b404 15be
000000c0: a54a 2bbe 6327 02be e401 7ebd bf85 0fbe
000000d0: efd8 5abe 4850 5bbe b14b 2539 64f0 38bd
000000e0: 329f 21be ca8e 473d 5ae1 99bb a380 5a3e
000000f0: d680 fcbd 60b7 8abd 1646 d33c 8cd7 99bd
00000100: 0330 393d 3de9 9c3c ec7b cdbd eefd 29bc
00000110: 1185 e6bc b600 66bc 5dc5 26be e374 f9be
00000120: 663a 9ebd 4405 d13d ddce 263e 4f01 b13c
00000130: c35f 15be 98ae 76bd 4e0a 293d e0aa 15be
00000140: fd95 95bd 9655 56bd 8632 55be f1ee bbbd
00000150: 96f6 69be 0502 58be 3f02 27be 9897 6c3d
00000160: 2c86 c5bd 12c1 fd39 62bb bd3c 0536 a53d
00000170: 465d 873d 7651 2a3e 33fe 10bd c08d 173d
00000180: 2821 77bd d58b b8bd 198b 2b3c a8b2 c1bd
00000190: fa84 2dbe c65f e7bd 362f 25be 6196 e4bd
000001a0: 6bc6 b9bd 434d 953d 98a6 adbc 227d 19bd
000001b0: 9c95 e33c 02f7 bb3d 53e2 793e a0a5 df3d
000001c0: 7f3d 1a3e 2a89 863d 3121 a23d bb3e 3f3d
000001d0: 5aad 3a3d 15cf fc3d bbc2 26bd 4728 e73c
000001e0: 9a18 f13d 5e24 e23d 8c9f cbbd 3ea8 0dbe
000001f0: f829 45be df87 893d 3361 4fbc 9a30 3c3e
00000200: 352b 0c3e 221e b93d 75da 55be b106 9cbd
00000210: cdcc 893d ec3d c7bd 0e6b 923d 0cb8 d6bb
00000220: 5d7c efbc 47ee 1fbe 8238 633d 4ff6 96be
00000230: 276a d6bd 63e8 13be e142 09be 2535 26be
00000240: 812b 8ebc d6d4 11bc e43c 5fbe 205c 703d
00000250: 6cda fdbd fec7 15be c940 ee3d 4902 02be
00000260: db31 00bd 7bdd 993d f673 973d 8cf6 e9bd
00000270: 75b1 893e 4231 37be 2553 cabd d948 303e
00000280: 7035 e7bd 1668 81bc 336d 5eba 1cfb 89bd
00000290: f6d6 393d 6c2e 95bd 6d2b 3e3a 1df9 a8bd
000002a0: 9d82 e43c 3489 2cba a69b 37be 906c 0d3d
000002b0: e445 07bd 8395 54be 6844 913d cfcb 5abe
000002c0: add7 e0bd 65d0 803d cfdb 57be 7ba6 afbd
000002d0: f94b a1bc b994 f23c 112c 813d edaf 61bb
000002e0: facf c73c 7d15 8a3d c87d d9bd 3cfd f93b
000002f0: f054 233d 8a92 9a3d 05d9 13be e0a1 cdbd
00000300: 13c9 15be 15f2 20bd fab2 85bd 0ec5 34be
00000310: 8660 8c3d 50b7 e7bd 1484 c0bd 966e ea3b
00000320: 8ea4 fd3b 4a21 62bd 06a8 1dbe 413f 153d
00000330: 0d50 173e 61c4 f3bd 8278 96bd c61c e8bb
00000340: 7031 19be 802b 8fbb cb1e de3b 9576 773e
00000350: f84f a53d f1f7 6bbd 3106 03bd 481e a1bc
00000360: a539 1d3c 566c 10be 7c60 003e 822a 083e
00000370: ee25 08be 07a7 0dbb 3cbc 353d e215 573d
00000380: 72f4 9bbd 8349 6ebd 3013 b2bd 3e8a bebd
00000390: 4131 1ebe 0b5a d0bd 2d08 ecbd c2dc 17be
000003a0: fbfb 93bd 6f29 cabd 48c3 c53c bf7f fd3d
000003b0: 089a c13d 2d00 253e 06bf 373e 9992 123d
000003c0: 586e 733d d7a9 d73d 6483 13be 44e1 ebbc
000003d0: c28e 16bd c08a 9e3d 3f30 2cbd 5053 bcbc
000003e0: 87fa 17bc 1c24 46bd e2ae 2a3d f35e 87bb
000003f0: 5a67 9b3d d7d1 9e3d b4d7 a7bd fbb1 8c3d
-0.049415704 0.085692845 0.109778225 -0.07709829 -0.15910044 -0.21013173 0.0198826 -0.027588533
0.21260546 -0.034757394 0.05304387 0.12557022 0.15838432 -0.047638174 -0.16327219 0.024618832
0.14854561 0.07785803 0.023092987 -0.020129798 0.15662567 0.029709343 -0.053797264 0.04042062
-0.0927408 -0.07469856 -0.34594718 0.0006902713 0.019906705 0.008186134 0.017690983 0.021646185
-0.15616408 0.15093525 0.035787947 0.16605999 -0.04498646 -0.019938348 -0.12650993 -0.018973557
0.04460034 0.16118532 -0.20122217 -0.03796662 0.22255614 -0.02514988 0.011497835 -0.14552575
-0.16727693 -0.12710337 -0.06201352 -0.14015864 -0.21371816 -0.21417344 0.00015763823 -0.04515113
-0.15783384 0.04872016 -0.0046960535 0.21338134 -0.12329261 -0.06773257 0.025790256 -0.075118154
0.045211803 0.019154185 -0.10033402 -0.010375483 -0.028139623 -0.014038255 -0.16286226 -0.4872199
-0.07725982 0.102060825 0.1628985 0.02160707 -0.14587311 -0.0602251 0.041269593 -0.14615965
-0.073039986 -0.052327715 -0.20820054 -0.09176434 -0.22847971 -0.2109452 -0.1630945 0.05776176
-0.09644732 0.0004839977 0.02316064 0.08066944 0.06609587 0.16632637 -0.035398673 0.037000418
-0.060334355 -0.09011046 0.010470175 -0.09457904 -0.16945258 -0.11297564 -0.16131291 -0.11161495
-0.09071048 0.07290127 -0.021197602 -0.03747285 0.0277813 0.091779724 0.24402742 0.10920262
0.15062521 0.06569131 0.07916487 0.046690684 0.045575477 0.12344185 -0.040713053 0.028217448
0.117722705 0.11042093 -0.099425405 -0.1383371 -0.19254291 0.067153685 -0.012657451 0.18377915
0.13688357 0.090389505 -0.20884116 -0.07618464 0.06728516 -0.097286075 0.07149325 -0.006552702
-0.029234106 -0.1561824 0.055473812 -0.29484794 -0.10469466 -0.14444117 -0.13404419 -0.1623121
-0.017354729 -0.008900842 -0.21800572 0.058681607 -0.12395176 -0.14627072 0.116334505 -0.12696184
-0.031297546 0.07512947 0.07395165 -0.11423978 0.268932 -0.17889884 -0.0987914 0.17215289
-0.11289489 -0.015796702 -0.00084849 -0.067373484 0.04537102 -0.07284245 0.0007254396 -0.082506396
0.027894313 -0.0006581724 -0.17930469 0.03452736 -0.033025637 -0.20760159 0.070931256 -0.2136681
-0.10978637 0.06289748 -0.21079944 -0.085766755 -0.019689547 0.029611932 0.06307233 -0.0034437135
0.024391163 0.0674238 -0.10619694 0.007629065 0.039875925 0.07547481 -0.14438255 -0.10040641
-0.14627485 -0.039293367 -0.06528278 -0.17653295 0.06854348 -0.11314261 -0.09400192 0.007154296
0.0077405637 -0.05520753 -0.15396127 0.036437277 0.1477663 -0.11902691 -0.07347204 -0.007083508
-0.14960265 -0.0043691993 0.006778573 0.24166329 0.080718935 -0.057609502 -0.031988326 -0.01966776
0.009596263 -0.14103827 0.12536806 0.13297465 -0.13295719 -0.0021614449 0.044368967 0.052511103
-0.076149836 -0.058175575 -0.08695066 -0.09303711 -0.15448476 -0.10173424 -0.11524997 -0.14830306
-0.07225796 -0.09871184 0.024140969 0.12377881 0.09453207 0.16113348 0.17943963 0.035784338
0.059431404 0.10530441 -0.1440559 -0.028793938 -0.03675724 0.07741308 -0.0420382 -0.022988945
-0.009276039 -0.04837428 0.041670687 -0.004131192 0.07588072 0.077548675 -0.08195439 0.068698846

encoder.conv2.bias f4 [16]
00000000: 05d8 81bd 339f 6ebd ed7c af3c 1bd9 ca3a
00000010: 821e 8e3c 7ced 873d 1d4c babc 145b 5e3c
00000020: c0aa 55ba 36b1 d53c 6696 60bd 2a06 043d
00000030: 8658 11bd 4cb1 07bd c105 7b3c de72 973d
-0.063400306 -0.058257293 0.021421874 0.001547608 0.017348532 0.066370934 -0.022741372 0.013571519
-0.0008150749 0.026085477 -0.05483093 0.03223244 -0.035484813 -0.033128068 0.015321196 0.07394956

encoder.batch2.weight f4 [16]
00000000: 7cdc 733f a2f6 4c3f b54e 443f 867f 583f
00000010: 34b9 583f 5fc1 693f 6d3c 703f 8602 783f
00000020: 812d 723f f719 773f 81aa 523f cef8 723f
00000030: f524 493f 0577 5a3f 9050 663f 5239 703f
0.9525831 0.8006383 0.766826 0.84569585 0.846576 0.91310686 0.938422 0.9687885
0.94600683 0.96523994 0.8229142 0.94910896 0.78572017 0.8533786 0.8996668 0.93837464

encoder.batch2.bias f4 [16]
00000000: 8001 8cbc 4b67 8cbc 11a8 1bbe 000e febc
00000010: eb41 9bbd 9830 4ebd da14 5abe 27ea cb3c
00000020: 68d8 11bd c413 22be 7a8e 0abe a124 84bd
00000030: ab22 03bd 28f1 34be f3f0 e6bd 0f64 9abd
-0.017090559 -0.017139098 -0.15200831 -0.031012535 -0.07580932 -0.05033931 -0.21297017 0.024891926
-0.03560677 -0.15827852 -0.13530913 -0.06452299 -0.032015484 -0.17670119 -0.11276426 -0.07538616

encoder.batch2.running_mean f4 [16]
00000000: 1ada 59be 61d6 10bf 92b0 06bf a0b6 b43d
00000010: b372 e43d c350 4dba 6022 d7bc 41a3 053f
00000020: 982b bc3e bf90 9b3e 48de 30bd a92e fc3e
00000030: 386c a1be 8d5c d6bd c5c7 86be 84ed 363e
-0.21274605 -0.56577116 -0.52613175 0.088238955 0.1115469 -0.0007832164 -0.026261508 0.5220223
0.3675201 0.3038387 -0.043180734 0.4925435 -0.31527877 -0.104668714 -0.26324287 0.17864043

encoder.batch2.running_var f4 [16]
00000000: 4c8a 243e 3105 943d 1830 363d 829f 863e
00000010: ffe8 d13d acba 3a3e 8169 b13d d994 1c3e
00000020: 4cb6 ca3d c542 123e 3ce0 e43d 1981 db3d
00000030: 0107 df3d abd2 953d cefd fa3d 472a ae3d
0.16068381 0.07227553 0.04447946 0.2629357 0.102495186 0.18235272 0.086627014 0.15291156
0.098980516 0.14283283 0.11175582 0.10717983 0.10890008 0.07315572 0.12255441 0.085041575

encoder.conv3.weight f4 [32, 16, 3, 3]
00000000: 904e 0b3d c136 37bc e66a a5bd 404e 7d3c
00000010: b468 d3bc df42 16be 4f7c 7e3d 68bf b13b
00000020: bd79 ba3d 9071 19bd 7ada 843d 2a15 4c3d
00000030: c065 8dbd 993c 40bb 4757 abbc d033 18be
00000040: 36fb 60ba b0d2 ab3d aeac a3bc 79e6 ac3c
00000050: 6725 013d 5a6f 883a e606 5e3d 9703 b63d
00000060: 6c8b fc3a 1fc9 4d3d 5dbb 4ebd 4308 0abd
00000070: df36 c13b 6b22 833d 1db0 03bd ed4a f93c
00000080: dda5 c1bd 9e12 b8bd ce9f dc3c b224 ac3d
00000090: f704 883d 7822 2cbd d4e0 f7bc 23f5 91bd
000000a0: 68b6 9a3c bf06 8fbc 23a9 503d c97a 1a3e
000000b0: 86c1 ae3c b282 b1bd bd58 96bd b366 2ebe
000000c0: f29b 073d 0903 4c3e 7ab4 d43d e239 93bc
000000d0: f238 0fbe 672d df3c df4a b33d 0606 da3d
000000e0: ed2d 9ebc 0eb8 4b3d 359c 1dbe 2b74 eebd
000000f0: 6750 96bd ae12 873c 742a a43d f125 e8bc
00000100: 6038 f4bc d2a9 2abe fc83 363c 8f91 223e
00000110: 428b 0dbe 1bf2 223d 490c 93bc 1b51 1cbd
00000120: 7276 5d3c 7f49 7b3d 2db8 5ebd cf2c 253d
00000130: a7a7 d13b 0832 fcbd 2d3a a6bd 254e 08be
00000140: 96a4 a0bd 7703 2abd 746a cc3d b3c9 15be
00000150: 2233 663d d3e1 1a3e 9a49 743c c958 173e
00000160: 9eee 883c 8161 a23d 90d0 04bc 242c 33bd
00000170: 3596 c2bc 70c2 73bd 15db b1bd 4fdd 7d3d
00000180: b77c dfbd 2f40 0e3e 990d 463d 7543 00bd
00000190: 5d68 b63d e3f8 10bb 66e1 873d 7a09 1c3e
000001a0: b337 663c bb00 4a3d 1859 c13c 2f4c 123c
000001b0: 714d 0e3d 66ee b3bd 8f66 8d3d df2d 14be
000001c0: 5189 12bd 1bec ba3d 903f 4bbe 0de3 233e
000001d0: f88c 18be 2af4 aa3a c122 b93d 7007 4dbd
000001e0: 54d6 a6bd a58f f33d f01e 2d3c 632a 0e3d
000001f0: d3d9 e8bc e411 cfbd d046 33bb 5801 a7bc
00000200: 6ede 0d3c 0e03 a43d b95e 1b3c 8d00 483d
00000210: 4dea fc3d 9c68 833e f4e4 bfbb ab2d d63d
00000220: f4f4 4fbc c821 67bc bec3 db3c 4539 2f3d
00000230: 0444 05be 1def f13d ad03 c1bd 7c9a 1b3d
00000240: fa24 253d f31a 113e 80a8 1f3e 81f8 00be
00000250: 5e83 cc3d 3605 cbbb b3f9 5a3d e155 d8bd
00000260: ec85 4cbe d40d c93b 95fb 923a 53b2 3dbc
00000270: e2ce fb3c 096d febd b497 033e 5365 c7bd
00000280: b56c 4abd 15eb 753d 41ba a13c d1cc cdbd
00000290: 15a1 5a3c 94ad 023d c41e 4cbd 1f12 6dbc
000002a0: c427 003c a874 60bd 7ab5 84bd 5834 b13d
000002b0: f36d 933d aa1b febd 6e11 b1bd 16ad 55be
000002c0: 8300 32be 35a0 9a3c e0ee b83d 8059 ca3d
000002d0: 5f4a 35bd f00e dbbd 33de c13d 4ea4 b03d
000002e0: 223e acbd 4ef7 60be 1afc 14be 7cec cfbd
000002f0: c94b c1bd 93d8 72bd b235 a0bd 808a 623d
00000300: 0934 2a3d 699b 183d e739 d33d d276 a9bd
00000310: f318 0ebd 3af5 60bd e513 663c f73b a0bd
00000320: 0ccc 353d 1eed bb3c 98ab 0c3c 8fac 833e
00000330: b8dd 053d dbf5 f2bc b240 c73c d1cc 2e3c
00000340: 77cd 353d b2f9 733d 0cc2 4a3d 4dc5 e73d
00000350: df01 263c 0617 f33c 3e82 08be ed69 42be
00000360: 175f 833d a913 16bd 168f dc3d bd5e 7d3d
00000370: d6d8 d83d 84a6 c03d 839e 8a3d 95a9 a3bc
00000380: 038a 453c 8b04 b9bc 3ec1 ac3d 3640 733c
00000390: 2ab9 6b3d ff85 073d cef7 d63d d7f2 df3d
000003a0: 2ff7 2bbc 8242 343d 6680 86bc fad1 5cbe
000003b0: 0d05 e03b 9836 333e 3a36 20be 25ab 5bbd
000003c0: 05fc 033e 7e29 253e e312 f23d 192f 7fbc
000003d0: 5eb4 483d 1673 1e3e 2d17 163d ee1d 663d
000003e0: 6d0a 7cbb 5898 79bc 4000 d93d 43f5 1ebc
000003f0: 15fa 0b3e dbd9 a4bd ebd7 0f3b 2638 b7bd
0.03401047 -0.011182488 -0.0807703 0.015460551 -0.025806762 -0.14673947 0.06213027 0.0054244287
0.09105251 -0.037461817 0.064869836 0.04982487 -0.06904173 -0.0029332994 -0.02091564 -0.14863515
-0.0008582355 0.08389795 -0.019979801 0.021105992 0.03152981 0.0010409162 0.054205798 0.088874035
0.0019267625 0.050240632 -0.050471652 -0.033699285 0.0058964337 0.06403049 -0.032150377 0.030431235
-0.09455464 -0.08987926 0.02693167 0.084054366 0.06641572 -0.04202506 -0.030258574 -0.07126834
0.018885806 -0.017459271 0.05094255 0.15085901 0.021332514 -0.08667506 -0.07341144 -0.17031364
0.033107705 0.19923033 0.10385986 -0.017971937 -0.13986567 0.02724333 0.08754515 0.1064568
-0.019309008 0.049736075 -0.1539162 -0.11643251 -0.07339554 0.0164884 0.0801591 -0.028338404
-0.029812038 -0.16666344 0.011139866 0.15875839 -0.13822654 0.03978167 -0.017950194 -0.038163286
0.013517009 0.06134939 -0.054374862 0.040325936 0.0063981595 -0.1231423 -0.08116565 -0.1331106
-0.07843892 -0.04150721 0.09981242 -0.14627723 0.056201108 0.15125208 0.014910126 0.14779963
0.016715344 0.07928754 -0.008106366 -0.043743268 -0.023753265 -0.059511602 -0.08684365 0.061978634
-0.10912459 0.13891672 0.04835281 -0.031314332 0.089066245 -0.0022121004 0.06634788 0.1523799
0.014051366 0.049317103 0.023602054 0.008929296 0.034741823 -0.08785705 0.06904327 -0.14470623
-0.035775486 0.09127065 -0.19848466 0.16004582 -0.14897525 0.0013042737 0.09039832 -0.05005592
-0.081463486 0.118926324 0.010566458 0.034708392 -0.02842418 -0.10110834 -0.002735544 -0.020386383
0.008658988 0.08008395 0.009483033 0.04882865 0.12349377 0.25665748 -0.0058561508 0.10457929
-0.012692679 -0.014107175 0.026826736 0.042779226 -0.13014227 0.11813185 -0.09424529 0.037989125
0.040318467 0.14170437 0.15591621 -0.12594797 0.09985994 -0.0061956896 0.053460788 -0.10563255
-0.19972962 0.0061356816 0.0011213893 -0.01157816 0.030738298 -0.124231406 0.12850839 -0.09736123
-0.049420077 0.060038645 0.019742133 -0.10048831 0.013344069 0.03190382 -0.049834028 -0.014469652
0.007821981 -0.054798752 -0.064799264 0.08652562 0.071987055 -0.1240762 -0.086459026 -0.20866808
-0.17383008 0.01887522 0.09029937 0.09880352 -0.04426038 -0.106962085 0.09466209 0.08625089
-0.084102884 -0.21969339 -0.14549294 -0.10152528 -0.09438283 -0.059288573 -0.078227416 0.055307865
0.04155353 0.037257586 0.10313778 -0.08274616 -0.034691762 -0.054921366 0.014042829 -0.078239374
0.044384047 0.022940215 0.008585833 0.2571759 0.03268215 -0.029658249 0.024322841 0.010668949
0.0443854 0.0595643 0.049501464 0.11316929 0.010132282 0.029674064 -0.13330933 -0.1898572
0.06414621 -0.036639843 0.10769479 0.061857928 0.10588233 0.0940676 0.06768515 -0.019978324
0.01205683 -0.022585174 0.084352955 0.014846852 0.057549633 0.033086773 0.10496484 0.1093499
-0.010495945 0.04400874 -0.016418647 -0.21564475 0.0068365396 0.17501295 -0.15645686 -0.053630013
0.12889107 0.1612911 0.118200086 -0.015575194 0.049000137 0.1547359 0.036643196 0.056180887
-0.0038458363 -0.0152340755 0.10595751 -0.00970203 0.13669617 -0.08049365 0.0021948765 -0.08946256

encoder.conv3.bias f4 [32]
00000000: 7caf ccbc 9945 093c 7198 813d 6d92 d43d
00000010: 149d 823d f113 173d 162b 35bd cb3c 1b3e
00000020: c2e9 953d bd21 ca3d d463 a4bd 6040 8cbd
00000030: 9ae2 67bd 5d43 ac3d b0d1 ca3d 16a6 9bbd
00000040: cf95 3c3d cab6 953d 149f 9dbb 8363 da3c
00000050: a7a9 ca3d 99c6 bd3b 9dc3 3b3c 787c 563d
00000060: f562 16bb f094 403d b8ea 0d3d 04ad dc3c
00000070: 212e 383c b95f 04bd 6fe4 09bb fdcd 933c
-0.024986021 0.00837841 0.06327904 0.10379491 0.063776165 0.036884252 -0.044230543 0.1515991
0.073199764 0.09869716 -0.08026853 -0.06848216 -0.05661259 0.08411286 0.09903276 -0.07600038
0.046041306 0.07310255 -0.0048102234 0.026658779 0.0989564 0.005791497 0.011460212 0.052364796
-0.0022947167 0.047017038 0.034647673 0.026937969 0.011241467 -0.03231785 -0.0021040698 0.018042559

encoder.linear1.weight f4 [128, 288]
00000000: 48af 90bd 7acc 05bd 9eb0 2ebd f36a 31bd
00000010: d12c bd3b ba72 3a3d 67e7 52bd 8a63 03bd
00000020: 1a2f 343d 1c08 6abd 4715 a1bd 188d 3fbc
00000030: d687 a7bc 6a75 0cbd 8680 c73c cfea c8bd
00000040: c0ac 2bbd 0258 003b 9817 64bd 74c0 c3bc
00000050: 462e 3e3c 8a43 43bd 5cf3 5abd 9c22 3cbd
00000060: 6316 8abd 4a5b 5cbd 8c1c c4bc 7269 85bd
00000070: 1d0d 46bd 1040 d9bb a44a 263d 2a61 d43c
00000080: 82f1 063d 7d4e a9bb 856f 043c 3b40 21bd
00000090: 0a48 88bd f875 1a3c 1761 0c3c c428 513c
000000a0: 7d5d a23c bffd 21bd 9f3a d13c b261 713c
000000b0: a562 4ebd c7f3 153d 7876 e83b 14ab 09bc
000000c0: 1d99 fcbb dd73 293d c76d a5bb b3c5 0b3d
000000d0: 43ef 0c3d e4a4 debc 49fe 333d 2367 26bd
000000e0: c0f8 c6bb 6206 463b 5726 b7bb 4494 5bbd
000000f0: d7ed 5c3d 15d1 28bd a053 0a3d 1e9e 05bd
00000100: c4c0 913c 48de f9bc 5ec0 35bc 305a b6bb
00000110: 10d9 ab3c f1e9 8cbc 4388 1c3b 977c 23bd
00000120: 2fdb 10bc 042c 01bd 6545 fbbc 72cb 8b3c
00000130: 4530 8ebc 4ec2 bebc 9ae4 81bc 89c0 9b3c
00000140: a73d b93c cd39 0a3d 958f 943c a5bd 4dbd
00000150: ff30 073d 4cfc 5a3b f5c8 8ebc ff8f 1fbd
00000160: d2b1 42bd bad1 cbbc 578c 0680 6910 1280
00000170: 7475 b2bc 758a 0a3d adc6 ca3c de83 0b3c
00000180: 269b 99b9 4e22 b93c 4720 1bbd 5774 13bc
00000190: 360e 093d 3a18 7fbc 70fe 7bbd d1c4 46bd
000001a0: f502 8cba 6593 ad3c 7537 973c 5e2b a1bc
000001b0: bb0d 24bd 659b 8fbd 9f37 a3bc a7cb c3bc
000001c0: 507e 2b3d ccbf 32bd 698b 43bd e63b 9eba
000001d0: a7b1 fbbc f646 9fbc 2c97 0a3b edb8 ac3c
000001e0: 1bbe 5bbd 37d0 e7bc 00f9 d6bc 2384 3c3d
000001f0: 4a0d cabd 2de0 0c3c 4918 bbbd 5200 9dbd
00000200: fe9d 31bd 9cbb 84bd be18 c5bc 0066 943c
00000210: 82c6 f3bc c759 38bd e991 03bd 5dc7 0e00
00000220: fb90 a43c 8e50 233c 6c09 b43c 44d9 f43c
00000230: a614 723c 7689 043c 4142 5d3d 0ba6 adb8
00000240: fca3 76bd c080 bd3b 2037 0dbc e928 a13c
00000250: 0085 e6bc b657 ccbc 5cf0 e13c ec45 133d
00000260: 6f53 51bc 8a9f b0bc 702c 003a 4a13 4abd
00000270: cee2 c53c 7f8e 083c c9ac 15bd 608e 153d
00000280: 375e 153d d88c 073c 5dec 50bd ee52 5cbc
00000290: 5f15 073d 28d8 823b d024 1f3d 7746 a0bb
000002a0: 98d6 1fbd 05ec 8a3c c323 103b 9e5d 3239
000002b0: 6675 2cbd 1599 12bd 83fe f03c 54ff 293c
000002c0: 5258 973c 1fbb 49bd 1e38 7dbd 67cf 7abc
000002d0: 3d47 40bd 5fe4 cd3c 3b87 263d 371d fc3c
000002e0: 46ba 86bc cbe0 80bd 73a9 bcbc e824 0bbc
000002f0: b019 e5bc 5187 009c 9fcd 45bb 1023 0d00
00000300: 861d 0b3d bf10 063d 9e5a 2e3c 2bc8 85bd
00000310: 793f 0abd 263c 06bd 8ccc 373c 4772 6dbc
00000320: 517c b93c fdf6 6ebb 3adc debc 3842 0a39
00000330: c627 dfbc 3c35 cabc f6dd 42bd a24b 03bd
00000340: 34e0 173d bd46 3e3c 7799 73bd f8b0 4c3c
00000350: ab5f fbbc d415 f2ba 6e55 503b 8ace e73c
00000360: e257 2c3c a0b6 d1bc bc04 873b 827e 1b3d
00000370: 5e70 56bd f5f6 86ba 5af7 093d c3e7 07bc
00000380: 1723 d83c fb68 ab3c fb8c 43bd e884 af3c
00000390: 1f83 adbd 44f8 ff3b 7aed f6bc cd74 26bd
000003a0: 5e75 aabc 4101 62bd 60c2 04bd d808 12bd
000003b0: 2fea 0cbd 5d72 53bd 3d96 abbd abe0 fcbc
000003c0: 679a 02bd ce7a b63b 1053 80bd 1c38 59bd
000003d0: d24a fd3b 2b95 6cbd 4afc f9bc 53d5 81bd
000003e0: f8c0 e8bc 19a9 85bd 89ef 87bc 3e45 963c
000003f0: 92f8 b6bb d6bd a9bd 93a0 253c 98af d3bd
-0.07064682 -0.032665707 -0.042648904 -0.043314885 0.005773165 0.045519568 -0.051490214 -0.03207735
0.043990232 -0.05713664 -0.078653865 -0.011691354 -0.020450514 -0.034291662 0.024353277 -0.09810411
-0.041912794 0.0019583707 -0.055686563 -0.02389548 0.011607712 -0.047671832 -0.05345474 -0.045931444
-0.06742551 -0.053797998 -0.023939393 -0.06514253 -0.04835235 -0.0066299513 0.040598527 0.025925238
0.032945164 -0.0051668272 0.008083229 -0.039367896 -0.06654365 0.00942754 0.00856807 0.012766067
0.01981997 -0.03954863 0.025540648 0.014732765 -0.050387044 0.036609437 0.0070942007 -0.008402605
-0.007708682 0.04137026 -0.005048487 0.034124088 0.034407865 -0.027178235 0.043943677 -0.040625703
-0.006072134 0.0030216207 -0.0055892873 -0.053608194 0.05393776 -0.04121502 0.033771157 -0.032621495
0.017792113 -0.0305015 -0.011093227 -0.0055649504 0.020977527 -0.017201396 0.002388493 -0.03991374
-0.00884132 -0.031536117 -0.030672738 0.017064784 -0.017357001 -0.023286011 -0.015856076 0.019012706
0.022612406 0.03374653 0.018134871 -0.050229687 0.03300571 0.003341454 -0.017429808 -0.038955685
-0.047532864 -0.024880279 -6.01357e-40 -1.658926e-39 -0.021784522 0.03382345 0.02475294 0.008515326
-0.0002929803 0.022599366 -0.03787258 -0.008999906 0.03346082 -0.015569741 -0.061521947 -0.048527543
-0.0010682034 0.021188447 0.018459061 -0.019674 -0.040052157 -0.07012061 -0.019923983 -0.02390082
0.041868508 -0.043639943 -0.047740374 -0.0012072294 -0.03072436 -0.019443016 0.0021147234 0.021084273
-0.053648096 -0.028297527 -0.02624178 0.046024453 -0.09865816 0.00859837 -0.091354914 -0.07666077
-0.043363564 -0.06481096 -0.02405965 0.018115044 -0.029757742 -0.045007493 -0.032121573 1.357215e-39
0.020088663 0.009967936 0.021977149 0.029888757 0.014775431 0.008089414 0.054018263 -8.280211e-05
-0.06021498 0.0057831705 -0.0086191 0.019672828 -0.028139591 -0.024944168 0.027580433 0.035955355
-0.01277624 -0.02156045 0.0004889434 -0.0493348 0.024156 0.008334755 -0.036541734 0.036512733
0.036466803 0.008273326 -0.051006664 -0.013447506 0.032979365 0.003993053 0.038853467 -0.0048912126
-0.039023012 0.016958246 0.0021993972 0.00017010278 -0.042104147 -0.03579052 0.029418236 0.010375816
0.018474732 -0.04925072 -0.061821096 -0.015308238 -0.046942938 0.02513331 0.04065631 0.03077565
-0.016446244 -0.06292876 -0.023030018 -0.008492686 -0.02796635 -4.252654e-22 -0.0030182374 1.20644e-39
0.033963703 0.032730814 0.010641722 -0.0653232 -0.03375194 -0.032772206 0.011218201 -0.014492578
0.022642286 -0.0036463134 -0.027204622 0.00013185374 -0.027240645 -0.024683587 -0.04757496 -0.03205455
0.03707905 0.011613545 -0.059472527 0.0124933645 -0.030685266 -0.001846964 0.0031789201 0.028296728
0.010519 -0.025599778 0.0041204374 0.037962444 -0.052353255 -0.0010296988 0.03368316 -0.008295002
0.02638392 0.020924082 -0.04774187 0.02142568 -0.08472275 0.007811578 -0.030142535 -0.040638734
-0.020807918 -0.055176977 -0.032411933 -0.035652965 -0.034403022 -0.051622737 -0.08378265 -0.030868849
-0.03188553 0.0055688387 -0.06265843 -0.053032026 0.0077298665 -0.057759445 -0.030515809 -0.063395165
-0.028412327 -0.065263934 -0.016593711 0.018343564 -0.005583831 -0.082881615 0.010109085 -0.10336226

encoder.linear1.bias f4 [128]
00000000: 7e9a a63c 4cf5 c73c 0ad8 e7bc af22 383c
00000010: 7a19 66bd 074a db3c 54c5 07bc 023f 803c
00000020: 7c45 293d 8a4e b63d 40d8 aa3d 40dd 853d
00000030: 8e2c b9bc a522 babc e760 8a3c 6e4d f43b
00000040: 24ea 323e 9786 87bc d729 7d3c 8782 fb3c
00000050: 6eaf 023d 36cd 773d e0e5 923d c2b3 04bd
00000060: a795 163d f554 a7bd e84c 173e 402f 8e3d
00000070: 6e61 dc3d bdc9 a2bb 39e4 cc3d a4e0 ed3d
00000080: d968 193e ebaf 893c 51f3 39bd 7871 53bc
00000090: ac03 173d a162 99bc a5b6 153c 9087 69bd
000000a0: 5d39 3a3d f5f7 833d ab8a a13b 946d d33d
000000b0: 83fa 8b3d 5f98 af3d 0d82 833d 49ee 953d
000000c0: 5442 0b3e d106 c63b 899c 3bbd 557c 8f3d
000000d0: 4d03 19bd bce6 0f3e a0b1 583d 0bba 123e
000000e0: 243b 6a3d d0ff b43d c8e3 f13d 982a 36bb
000000f0: 4825 a4bd 0083 2a3e 67d7 b13c 0736 89bd
00000100: dc7b 93bd 5249 13bd 9d55 e73c 1996 ee3d
00000110: 1845 a9bb 2003 86bd 7322 3c3d 8563 4ebb
00000120: d66f f33c dc5e b33c 85b9 ecbc 1354 9d3d
00000130: 8878 773d 5ef3 7bbd 3f44 df3b 829f 26bd
00000140: 0a47 873d e91b b2bc 2986 b43c c5ab db3c
00000150: 44de d83b d6b3 873d a807 cabc 31af f9bb
00000160: edab 5e3c 2130 423a 7ff0 89bc a116 fbbc
00000170: 33fd 8a3c 77bc 88bd 1f13 abbc ce79 b83d
00000180: 745b a33d 13b9 993d 32f6 2b3d 53cc eb3d
00000190: 3239 c4bd 393c a1bc 8526 78bc b7b7 e23c
000001a0: f864 af3c 3dc3 073e e910 57bd e7cd da3d
000001b0: 244c 15bd 1cca a73d 2c28 2e3e c331 2f3d
000001c0: e5c7 38bc fb65 ca3d 2d10 ae3d 4964 3ebc
000001d0: 557c bf3d f6ee 71bc 790f 663d 3ab8 923d
000001e0: d376 cc3c 304e f5bc 5ae7 afbd 7677 d33d
000001f0: ddfe 3cbd 4922 20bc 3e48 383d 53ee c53c
0.02033734 0.024408959 -0.028301258 0.011238738 -0.05617664 0.026768697 -0.008286793 0.015655044
0.04132603 0.08901699 0.08342028 0.06536341 -0.022604253 -0.022721598 0.01689191 0.0074555194
0.1747213 -0.01654367 0.01545187 0.030701889 0.031905584 0.06049844 0.071727514 -0.032397993
0.036763813 -0.08170501 0.14775431 0.06942606 0.10760771 -0.0049678967 0.100044675 0.116151124
0.14981402 0.016807517 -0.04539806 -0.012905471 0.036868736 -0.018723788 0.009137784 -0.057014048
0.045464862 0.064437784 0.0049298606 0.10323635 0.06834891 0.08573984 0.064212896 0.0732084
0.13599521 0.006043293 -0.04580358 0.07006136 -0.037356663 0.14052862 0.05290377 0.14328782
0.057185307 0.08837855 0.11811024 -0.0027796384 -0.08014923 0.16651535 0.021709157 -0.06699758
-0.07201359 -0.035958596 0.028239066 0.116497226 -0.0051657073 -0.06543565 0.04593129 -0.0031492424
0.029716413 0.021895818 -0.028897056 0.076820515 0.060417682 -0.06151139 0.0068135555 -0.040679462
0.066053465 -0.021741824 0.022036629 0.026815305 0.006618293 0.06626098 -0.024661854 -0.0076197614
0.013590795 0.00074076845 -0.01683831 -0.030650439 0.016966438 -0.06676572 -0.020883141 0.090076074
0.07976428 0.07506003 0.041982837 0.11513581 -0.09581222 -0.019682037 -0.0151459025 0.027675493
0.02141045 0.13258071 -0.05250636 0.10683804 -0.036449566 0.08192846 0.17007512 0.042772066
-0.011278127 0.098827325 0.08499179 -0.0116205895 0.09349886 -0.014766445 0.0561671 0.07164045
0.024959004 -0.02994451 -0.08589049 0.1032552 -0.046141494 -0.009773799 0.04499077 0.024161493

encoder.linear2.weight f4 [4, 128]
00000000: 50a4 d13c e0ad 86bd 4d7e 243c a630 463d
00000010: 7524 003d a103 89bd f21d 983a fce8 333b
00000020: 4c93 963d a2c3 9a3c a273 1abd d9eb 813e
00000030: e4a0 2cbd 1835 95bd e9e4 c3bc 6953 313d
00000040: e491 d0bd 0744 313d 40be f13b 8fc8 57bc
00000050: 075f 14bd 8713 43be f9cc 8038 fea4 ca3d
00000060: a310 fe3b 53b3 19be c4f8 023e a85c cc3d
00000070: 3d60 0c3c e84b c13c d36e a1bc c47c fbbc
00000080: 5ef2 abbd d1f6 9dba 3311 af3b ef19 e43e
00000090: 79d0 ccbc 7e66 4b3d ff18 47bd 0637 92bd
000000a0: cd70 9a3d f5d8 2e3c faf8 af3c e512 e03d
000000b0: d86d c1bc 37e9 bebd b64c 56bd da33 ec3d
000000c0: d376 07bd 875c 8dbc e13f 183d 10ca 02bd
000000d0: a0ff b63c d62c 93bd 0668 163d e216 aaba
000000e0: 7ea9 7a3d 6f53 4dbd 644c 093e 22b0 563e
000000f0: a6c5 45bd 84d5 773c 27b4 aeba 6b5f 82bd
00000100: 7b57 cdbc a4ed ddbc 37a2 b0bd d40c a43d
00000110: b902 3e3d 01a2 283d cacc 95bd 40b6 083c
00000120: 64a7 1a3d 43e0 93bd aa6f 303d a100 02bd
00000130: 7ed3 cf3c d147 1cbd b692 65bd edce 443c
00000140: acdf 00bd 9085 36bc 9977 85bd 2337 023d
00000150: 265a 4e3d c2fe 243d 7dc8 253d fc2b fa3a
00000160: d519 61bd 30a6 a9bb 2ccf b83c 985f ea3c
00000170: 2e89 39bd a19b 023d 336c 913d 3a30 18bc
00000180: 21bd 683c f644 3ebd 6e24 b53c 2a27 443d
00000190: cb3c 15bd 8d41 473d 4a7e a53c 8bbf aabd
000001a0: 9b38 063d b64f 923d f673 d73c 8a5e 0dbc
000001b0: b084 cb3c 5940 ecbb daa2 64bd 17b5 58bd
000001c0: c49a d73c 7c44 d2bd b99c 313c 5c5f 4dbd
000001d0: 2058 573d 8f71 6cbd 4b0d 3c3c 90d1 7fbe
000001e0: 17c7 2bbd 9351 123d 81d8 353d c795 11bd
000001f0: 226f b23b 31e3 32bd 945b 063d 9cf8 98bd
00000200: 5a6a 65bd 1230 94bd 8a42 1ebd cb2b 54be
00000210: ef04 b4bc 59e5 bf3d 87e7 e7bb 0d8d b43d
00000220: 5dd4 38bd b55b 01be d68c 68bd 0547 abbc
00000230: 2214 6bbc 8c4e c73d 541c f33c 5cc5 65bd
00000240: 7eb8 503c de58 6abe de46 1d3b d638 43bc
00000250: 3cee 0a3e 7ed0 a43c df89 97bc c93b 663e
00000260: ce81 833e b1bf 47be dc67 323e bdce 7cbe
00000270: 892a abbc 4c55 ee3c c050 d43d 3740 143d
00000280: 76e7 01be 74b4 963d ee94 29bd bdab 05be
00000290: 2702 133d 31c3 4d3d 27a8 b3bd 62db 633d
000002a0: bcef 593d 157a 5fbd 4bc2 5d3d cc8a 903d
000002b0: 9e2f f13c 70f3 853d c82a c43c 47bb 9e3e
000002c0: 8f33 33bd 70ce 5e3d c7bc fabc 0008 35bd
000002d0: 899a 86bd ef79 ca3c a039 2fbd 8fbf dd3a
000002e0: 1d5c 163e c927 02bd a8c5 283e 752c 8dbe
000002f0: 6656 723c 2f2c c63c 3358 42bd 56d2 173d
00000300: 682a a33d 85b3 323d e855 f83c a4ff e1bd
00000310: c263 423c 82b3 af3d 1aaa 11bd 7980 0e3b
00000320: af7c 103e 3a5c 8d3e 1582 fdbc 3918 3dbb
00000330: 312b 88bc 205c 5a3d 4d68 8c3e 9cd1 59be
00000340: c82b d53c e88c 6ebd ffef 1b3c 423f 4a3d
00000350: 41f3 babc 45eb ebbd 73ff 82be 8239 cc3c
00000360: e23c e8bd c934 793c f65e 963d e089 903c
00000370: f08d 4f3e 219f 94bd e1d4 94bd 63cf 14bd
00000380: 9c64 923d 5335 f63d 2b20 a5bc 4b80 4f3d
00000390: 1c6a a93c 1bb7 113d 52fe ad3c b30d 443e
000003a0: 7c9e ba3c ae23 2e3d 8494 36be 36c1 4c3d
000003b0: b37e 943d 0559 123d 7de5 22bd 20fb 353e
000003c0: 5e28 ae3d 71a2 97bd dec8 833d 91f5 113d
000003d0: cd15 31bd 78e3 1a3d 7abb cb3d aedc ba3d
000003e0: db77 27bd 5943 1b3d cfda 74bc 4105 31bd
000003f0: 510d 353d 1054 8abd b418 3a3c d10f 3cbe
0.025591046 -0.06576133 0.010039878 0.04838624 0.031284768 -0.06690145 0.0011605604 0.0027452102
0.073523134 0.018892113 -0.037707932 0.2537525 -0.042145625 -0.072855175 -0.023912864 0.043292437
-0.101840764 0.043277767 0.007377416 -0.0131703755 -0.036223438 -0.19050418 6.141695e-05 0.09894751
0.007753448 -0.15009813 0.12790209 0.0997861 0.008567867 0.023595765 -0.019706165 -0.030699141
-0.08395837 -0.0012051706 0.0053426265 0.44551036 -0.025001751 0.04965829 -0.048607823 -0.07139401
0.07541046 0.010671844 0.021481026 0.10941104 -0.023611948 -0.09321826 -0.05231925 0.115333274
-0.033072304 -0.017256035 0.037170295 -0.031930983 0.022338688 -0.07186286 0.0367203 -0.001297679
0.061196797 -0.050128397 0.13408047 0.20965627 -0.048284195 0.01512659 -0.0013328836 -0.06365856
-0.025066128 -0.027090855 -0.0862469 0.08010259 0.046389315 0.041170124 -0.07314451 0.008344233
0.037757292 -0.07220509 0.04307524 -0.03173888 0.025369402 -0.038154427 -0.056048118 0.012012226
-0.03146331 -0.011140242 -0.06516952 0.031790864 0.05037894 0.04028202 0.040474404 0.0019086595
-0.054956276 -0.005177282 0.022559725 0.028610036 -0.04529684 0.0318867 0.071007155 -0.009288842
0.014205248 -0.046452485 0.022112098 0.047888912 -0.03643493 0.0486465 0.02020182 -0.08337315
0.032768827 0.0714411 0.026300412 -0.008628497 0.024843544 -0.0072098193 -0.05581937 -0.052907076
0.026318915 -0.102669686 0.010840588 -0.05013977 0.052574277 -0.057725485 0.011477779 -0.24982285
-0.041937914 0.035722326 0.044395927 -0.03554323 0.005445377 -0.043673698 0.03280218 -0.074692935
-0.056009628 -0.07235731 -0.038637675 -0.2071983 -0.021975009 0.093699165 -0.0070771608 0.08815966
-0.0451244 -0.1263264 -0.056774937 -0.020907888 -0.014348062 0.097317785 0.029676594 -0.05609642
0.012739299 -0.22885463 0.002399854 -0.011915406 0.13567442 0.020118948 -0.01849836 0.22483744
0.2568497 -0.19506718 0.17422432 -0.2468824 -0.020894306 0.029093407 0.10366964 0.036194053
-0.12685952 0.073586375 -0.041401796 -0.13053794 0.035890725 0.050234977 -0.08772307 0.05562914
0.053207144 -0.054559786 0.05414037 0.070577234 0.029441651 0.06540573 0.023946181 0.31002256
-0.043750342 0.054396093 -0.030607594 -0.044197083 -0.06572444 0.024716346 -0.042779565 0.0016918051
0.14683576 -0.031776223 0.1648165 -0.2757298 0.014791107 0.02419099 -0.047447395 0.037065826
0.07967073 0.043628234 0.0303144 -0.11035088 0.011864604 0.0857916 -0.035562612 0.0021744056
0.14110063 0.27609426 -0.030945817 -0.002885355 -0.016622158 0.053310513 0.27423325 -0.21271366
0.026021853 -0.058239847 0.009517669 0.049376734 -0.02282107 -0.115194835 -0.25585517 0.024929766
-0.113397375 0.015210339 0.07342331 0.017643869 0.20268989 -0.07256914 -0.07267166 -0.036330592
0.07148096 0.120218895 -0.02015694 0.05065946 0.02068048 0.035575014 0.021239433 0.19145851
0.02278065 0.042514496 -0.17830092 0.049988948 0.072507285 0.035729427 -0.03976964 0.17771578
0.08503793 -0.0740403 0.06434797 0.03563458 -0.04323368 0.037814587 0.09947868 0.091241226
-0.040885787 0.037906025 -0.014944746 -0.0432179 0.044202153 -0.06754315 0.011358429 -0.18365408

encoder.linear2.bias f4 [4]
00000000: 044e 6abd b749 66bd 44e6 2dbd 0731 73bd
-0.057203308 -0.056222644 -0.042455927 -0.059372928

encoder.linear3.weight f4 [4, 128]
00000000: f473 2a3d 0155 983c c2a5 c1bc 1f1e bdbd
00000010: d085 823d c121 b33d e5bb 9abd 1b07 153d
00000020: 8210 83bd cfe3 e53c 4de4 60bd 42ca 6a3e
00000030: 8de5 003d ab9f 4a3d b354 b7bc 9965 da3c
00000040: aa50 c13d cfc4 633c 37f0 9fbd 4af2 60be
00000050: f0bd 43bd 332d 353d 2596 c3bd 4df9 f7bc
00000060: 764a 23bd 1ac2 bb3c 9bee 5d3c 716b 04bc
00000070: d33b 4cbe bd1d 173d 89f3 a5bd 68b8 3abe
00000080: 9f0d 89bd c920 1bbd 1014 883d e1c6 8bbc
00000090: a9a6 f4bd 646a 85bd 7b5d 6abc edb8 463d
000000a0: 5972 3c3d 3fef a8bd 391d 9c3c d4bd a2bc
000000b0: d5e0 dbbd 8d76 f0bc a9c7 e0bc fbfd 3b3d
000000c0: 93eb 4bbd 4a64 a53c 2234 87bc 18d6 c8bd
000000d0: 3e67 d3ba e4b2 68bd 44a1 32be 96da 50be
000000e0: 943c 35bb 0d9e a7bd 5a1b a6bc 42a9 7f3e
000000f0: 31ce 713d d3e7 32be 3515 a4bd ac18 013d
00000100: 0fea 4d3d 0e8d c93c d612 74bc 6750 e8bd
00000110: 7b3f 7b3d 0ebd 77bc 467a 32bc 7f88 90bd
00000120: 5a05 a7bb 05c9 e3bc bfc1 00bd 9d79 92bd
00000130: 22bc aebb bcb9 d2bb ca07 773d 8aa0 863d
00000140: 6319 6ebe 3b36 9cbd 2c96 8e3c 9a34 953d
00000150: 8562 81bd d1ac f13c 9ddc 00be 2eb6 8d3d
00000160: 4336 8abd ad5e a4bd 31f8 bbbd 9cd3 663c
00000170: 63ad d2bc d750 1bbd 68c5 503d 5265 11bd
00000180: 5ddf abbd 29fa 83bd b9ee 903d f17d 1abd
00000190: 5aa2 513c e288 75bc d166 4bbd 2e6b b9bd
000001a0: 4153 d93c 60bd b3bd 1d74 133a 0ec8 8ebd
000001b0: 81b7 14bd 064a 133d d468 3bbe ad42 14bd
000001c0: 0baf 83bd 97ee a7bd c799 50bd 0041 0d3d
000001d0: 7ac0 adbd 5e5d 1d3c 5727 49bc c14c 143e
000001e0: b502 80bd e8f6 90bd e95c d6bb 3495 773c
000001f0: 5c8f 09bc 3241 8cbd a390 23be 0a96 ffbc
00000200: 4260 28bc 22dc 213d a29c b1bd 2c1e 3abd
00000210: 6507 1d3c 4613 933c 20a9 cbbd ff31 963d
00000220: 865a 8dbc b97e 13bd a901 7ebd 9f4c c83d
00000230: 7b29 403d f2d6 653d 14a6 3cbd 639f 24bd
00000240: d32d 033d 126d 913d 9bf5 eabc 0479 15be
00000250: 9a9a 5ebd eb32 d73d 7d8c e3bd 6b20 b0bd
00000260: 961a ca3d 2c60 23bd 01e1 5cbc c867 5c3d
00000270: a173 4ebe e236 6d3d 69e0 8ebd 7c06 84bd
00000280: 2d38 24ba 88ac 21be 7cb5 753d 5a05 2a3d
00000290: ea30 5ebd 100b 983d f8c8 403d 101f 413d
000002a0: 6432 77bc 54fa bfbd eaca 15bd d688 11bc
000002b0: 833c 5ebe bd4e d33c 802b 803d 5297 293d
000002c0: ac24 ccbd cda4 4b3d 6d84 3dbc 6978 b3bd
000002d0: 3056 e6bc 3b5d 45be 2f30 21be 08c9 183e
000002e0: 7c05 ecbb 00d2 01bd f843 163d ae01 253e
000002f0: 87dd d5bc 22d7 29be c724 cdbd 55a5 633d
00000300: b6e7 90bd 766d b43c 322f 4f3d 6ea6 cabc
00000310: 4646 5dbd 5e2a 5dbc 8724 7cbc 9e09 ce3d
00000320: cc6f b73d 2fd7 d3bd 62e1 fd3b 0c57 8dbc
00000330: 26b4 2e3d f771 3b3d ef11 d73c 75b2 033e
00000340: b850 5bbe ff47 8c3d f2b4 26bc 7c05 833d
00000350: acb4 8a3d da32 ae3d 0c15 d2bd 6819 c3bc
00000360: b371 adbd d372 653d 989b 653c f435 e3bc
00000370: 47b8 42bc 31e9 973b 9d5c 693d fea4 57bd
00000380: 431f bdbd ab1e 073d c022 043d 7bb2 673d
00000390: e4ff 503d 59f7 543d e499 83bd 3a33 85bd
000003a0: 8cef 92bc 3c56 c9bd b78a 3fbd 95b9 903c
000003b0: f1f4 893d 3223 053c 7ead fabd 3815 f4bd
000003c0: 31d7 cabd eefa 67bd 7013 0cbd 4f27 653d
000003d0: 9925 c73c 18f4 2b3d c071 2d3d e889 51bc
000003e0: 549c 6cbd 5057 d93c a554 0c3d baac a4b9
000003f0: 996a 633d 93c8 913c d466 cfbd 4744 35bc
0.041614488 0.01859522 -0.02363861 -0.09234261 0.06373179 0.087466724 -0.07555369 0.03638373
-0.06399633 0.02806273 -0.054905225 0.22928718 0.031468917 0.049468677 -0.022379255 0.026659774
0.094392136 0.013901903 -0.07809489 -0.21967426 -0.04778856 0.04423256 -0.09550122 -0.030270243
-0.039865933 0.022919703 0.0135456575 -0.008082257 -0.19944696 0.036893595 -0.08103091 -0.18234408
-0.06692051 -0.037873063 0.066444516 -0.017062606 -0.119458504 -0.06514433 -0.014304514 0.048516203
0.046007488 -0.082487576 0.019056903 -0.019865908 -0.10736243 -0.029353404 -0.027438955 0.04589651
-0.049785208 0.020189423 -0.016504351 -0.0980646 -0.0016128791 -0.05681123 -0.1744433 -0.20395884
-0.0027654516 -0.08184443 -0.020276714 0.2496691 0.05903453 -0.17471246 -0.080118574 0.03151767
0.050272044 0.024603393 -0.014897069 -0.113434605 0.061339837 -0.015120758 -0.01089341 -0.070572846
-0.0050970735 -0.027805815 -0.03143477 -0.07152102 -0.005332486 -0.0064308327 0.060310163 0.06573589
-0.23251872 -0.07627531 0.017405592 0.072854236 -0.06317619 0.02950135 -0.12584157 0.06919514
-0.06748631 -0.080258705 -0.09178198 0.014088538 -0.025717443 -0.03791889 0.05096951 -0.035497017
-0.083922125 -0.06444199 0.07076783 -0.037717763 0.012795055 -0.014986249 -0.0496586 -0.09053646
0.026528956 -0.08776355 0.0005624907 -0.06971751 -0.036307815 0.035959266 -0.18301708 -0.0361964
-0.06429871 -0.08199804 -0.050927904 0.034485817 -0.084839776 0.00960478 -0.012277446 0.14482404
-0.06250516 -0.07078344 -0.0065418375 0.015111256 -0.008395996 -0.068483725 -0.15973143 -0.031199474
-0.010276856 0.039516576 -0.086724535 -0.04543893 0.0095842825 0.017953526 -0.099443674 0.07333755
-0.017255079 -0.036009524 -0.062013302 0.09780239 0.04691456 0.05611319 -0.046056822 -0.040191066
0.032026123 0.07100882 -0.028681567 -0.14596945 -0.05434666 0.10507759 -0.111107804 -0.08599933
0.09868352 -0.03988664 -0.0134813795 0.05380991 -0.20161296 0.05791367 -0.069763966 -0.06446549
-0.00062644744 -0.15788472 0.05998753 0.04150901 -0.054245867 0.07423985 0.04706666 0.047148764
-0.015087698 -0.09373918 -0.036570467 -0.008882722 -0.21702771 0.025794381 0.06258297 0.041404076
-0.09967932 0.049717713 -0.011567217 -0.08763201 -0.02811727 -0.19273846 -0.15741037 0.14920437
-0.007202802 -0.031694412 0.036685914 0.16113922 -0.026106609 -0.16585973 -0.1001678 0.055577595
-0.07075445 0.022024851 0.05058212 -0.024737563 -0.054022096 -0.013498871 -0.015389568 0.10060428
0.089568704 -0.103437774 0.007747815 -0.017253421 0.04265227 0.045762982 0.026253669 0.12861045
-0.2141751 0.0684967 -0.010174977 0.063975304 0.06772742 0.08505793 -0.102579206 -0.023815826
-0.08468952 0.056017708 0.014014147 -0.027735688 -0.011884755 0.004635953 0.05697309 -0.052647583
-0.09234478 0.03298823 0.032259703 0.056566697 0.051025286 0.0519937 -0.06425837 -0.06503911
-0.01793649 -0.09830901 -0.04676315 0.017666617 0.06736172 0.008126067 -0.12240122 -0.1191811
-0.09904326 -0.05663579 -0.034198225 0.05594569 0.02430992 0.041980833 0.04234481 -0.012789227
-0.057766274 0.026530892 0.03426041 -0.0003140921 0.05552158 0.017795837 -0.10127035 -0.011063642

encoder.linear3.bias f4 [4]
00000000: 8622 89be b763 4bbe 82ef 65be efb9 84be
-0.26784152 -0.19862257 -0.22454646 -0.25923106

decoder.decoder_lin.0.weight f4 [128, 4]
00000000: 75d5 82be c971 e0bc c227 1abe fb9f fabe
00000010: 9248 ee3c d492 0b3d 3e44 b93d 05c0 92bd
00000020: 39bd 073f 60a9 453e b6d5 203f 364b bdbd
00000030: 4af8 07bc 75ca 8c3e 9420 57be cddc ecbe
00000040: 40a1 353e 9e09 ebbe d2c4 803d 42a5 ae3d
00000050: 8f40 7dbd 7b8b 7d3e f80d 0a3e fa42 fcbd
00000060: 3c2b 66bd a553 c9be 6e12 d9bd bcf2 a9be
00000070: 7fef 9bbe c418 cbbd 59ed db3d 1921 ffbe
00000080: 8df4 113e 9c85 643e a461 873c 1ba8 e43e
00000090: 5dfe 963e 8ccf 97bd fd6b 91be dd1c 6d3e
000000a0: 7c53 973d b555 f13c bc91 1ebe 8208 1bbe
000000b0: 1107 7f3d 57e4 5a3e 6363 d2bc 2904 6f3d
000000c0: ad60 c43e efbf 6e3e 9923 783c 23cb 223d
000000d0: 9855 22bd aca0 363e 5601 c23e 3bda e2be
000000e0: 57df e03e b698 573e fe5f 03bf 5b5f 663e
000000f0: e49e 9b3e 7c41 c93e 1c43 ae3e 2e6f e4bd
00000100: cbbe 983b e676 de3d 5ea0 2ebe 8c00 6ebd
00000110: 4e39 59bd dafa 85be 9c59 d63e c989 5e3e
00000120: c61b 62be 852b 403e 63c3 d5be c495 eabe
00000130: 3c6b 45be 78cb b63c 2711 49be 382a c03c
00000140: c8cb 1d3e b38c 1abe 386c 303f 5677 0a3f
00000150: 6046 8dbe 4c21 9abe 6623 163e 6779 fd3d
00000160: de85 e7be fc8c 0abd b0cc e43e b1f8 593e
00000170: aab0 863e 9e56 b93e 7e81 3a3f 5f82 883e
00000180: 168e 1f3f 81d0 bb3d d4d5 f2be ced3 933d
00000190: 1854 4b3e fb37 0ebe ca88 78be a453 d2bb
000001a0: 9bad fb3c 54c9 5b3c 9d67 43bf 3d28 0bbc
000001b0: 3e63 bc3d 1dcb 0d3e cb1b 8b3d 2eb4 8f3d
000001c0: a148 be3e 6446 853e 3a6d 94be ab3a 0d3e
000001d0: 4c7e 74be 3dcc b0be 1516 a73e 6f58 acbd
000001e0: b120 62bd daff 24bd 2dec 3c3e 4c0d 15bc
000001f0: d6c3 53be d088 0e3f 7322 9abe f714 a9be
00000200: d2d9 e93e 4500 1ebe 3bd0 1cbf b8ee b63e
00000210: bdd6 72be 5ade 9f3c c8d3 9d3d b60b 61bd
00000220: 6b5c 633e df2f abbd ee06 3dbf 3ecd a63d
00000230: 3c7e 273f f844 a03d bd79 8f3e 1df6 d63e
00000240: 76fa 503e 3d6a b43d feb8 053e 44b5 abbd
00000250: 2d9a 8b3d 17d0 e83d 887a c9be 9a7f 383e
00000260: 7522 f83e 6b34 bcbe aea3 fd3d 6982 79be
00000270: 4614 c4be b8f8 343e 2217 01be 50c0 073c
00000280: 9cfc 9a3e 62a9 76be a21b 293d 9dfb b0be
00000290: 2156 8ebe c8d6 6f3e 9b95 3abe ad05 3d3d
000002a0: 24b9 2e3e fa07 f03d 83d9 17be 742d b1be
000002b0: 9942 89be d00a 8c3e a516 933e 40bd 13be
000002c0: 81e1 f63e 8595 d23a 9eef d53e 04d5 593d
000002d0: ab1b 313f d9eb c4be 27c1 a93e 0cf2 af3e
000002e0: cc62 e4be 7a26 e93d 2a59 bcbd 8f59 953d
000002f0: f116 9dbd a9c7 90be 1c84 05bf 0400 72be
00000300: 5f03 d4bd e10c e8be ddcc edbd 2b83 5fbe
00000310: 34eb bcbe 4c62 c9be e97c debe 8503 923e
00000320: fe74 b33e 9edc 64be 9326 353f d47b 36be
00000330: f1ce 91bd 3725 783e 8f05 a73d 2088 f03e
00000340: 4768 2dbe cca5 95bd 9502 c73e 24e2 26bd
00000350: 8dac 943e 47e0 9e3e f733 62bf c7c2 6b3e
00000360: bb9a 89be e2ef b63c c450 d0be bb57 85bd
00000370: cc53 c8be 9fce ae3e 4229 c53e 4fac d93d
00000380: dd3b a6bb 5c42 5dbd 3650 1fbf 64f6 12bf
00000390: ff8a 01bf 2a0f 0f3e 4b94 63be 276e b6be
000003a0: b66b d13d eff5 99be 7c7d 8e3e db05 2fbe
000003b0: 93f6 e8be 635a 963c 9038 98be b992 db3e
000003c0: a703 65be dccd e03d 49e3 443e 4474 01bf
000003d0: 54af fa3e dff3 30be f717 20bf 0ac7 08bd
000003e0: 8c07 0f3e 0605 62be 437b 303f 5503 b73d
000003f0: fb63 d2be a5a9 e93e eef5 05bf 2be7 4c3d
-0.2555348 -0.027398007 -0.15054229 -0.4895018 0.029087339 0.034075573 0.09046219 -0.07165531
0.53023106 0.19302893 0.62826097 -0.09242861 -0.008298943 0.27498212 -0.21008521 -0.46262208
0.17737293 -0.45905775 0.062875405 0.08527614 -0.061829146 0.24760239 0.13481891 -0.12317462
-0.056193575 -0.39321628 -0.10599218 -0.33193004 -0.3045616 -0.09916833 0.1073863 -0.4982994
0.14253445 0.22316593 0.01652605 0.44659504 0.2949094 -0.07412633 -0.284027 0.23155542
0.0738897 0.029459814 -0.15485281 -0.15139964 0.0622626 0.21376167 -0.025682157 0.058353577
0.38355008 0.23315404 0.015145206 0.039744508 -0.03963241 0.17834729 0.37891644 -0.44307122
0.43920395 0.21054348 -0.5131835 0.22497313 0.3039466 0.39307773 0.34035575 -0.11154018
0.004661416 0.10862522 -0.17053363 -0.05810599 -0.053033166 -0.26167947 0.41865242 0.21732248
-0.22080907 0.18766601 -0.4175063 -0.45817387 -0.19279188 0.022313818 -0.1963545 0.023457631
0.15409768 -0.15092735 0.6891513 0.5408834 -0.27592754 -0.30103528 0.14661941 0.12376671
-0.4521932 -0.03382586 0.44687414 0.21286274 0.2630666 0.36198896 0.7285384 0.26661965
0.6232618 0.09170628 -0.47428763 0.07218133 0.19856298 -0.13888542 -0.24270931 -0.006418662
0.03072243 0.0134147 -0.76329976 -0.00849348 0.091986164 0.13847013 0.067924105 0.070167884
0.37164786 0.26030266 -0.28989583 0.13791911 -0.23876303 -0.3453082 0.32634035 -0.08415305
-0.05520696 -0.04028306 0.18449469 -0.0090974085 -0.20680174 0.5567751 -0.30104408 -0.33023807
0.45673996 -0.1542979 -0.61255234 0.35729003 -0.23714729 0.019515205 0.0770641 -0.05494281
0.22203223 -0.0835874 -0.738387 0.081446156 0.65426993 0.07825655 0.28022566 0.41984645
0.20408043 0.08809326 0.1305885 -0.08384183 0.06816516 0.11367815 -0.39351296 0.18017426
0.4846379 -0.36758742 0.12384735 -0.24366154 -0.38296717 0.17673004 -0.1260648 0.008285597
0.3027085 -0.24088052 0.04128612 -0.34566966 -0.27800086 0.23421776 -0.18221132 0.04614799
0.17062813 0.117202714 -0.14829068 -0.3460499 -0.26808622 0.27352 0.28728214 -0.14427662
0.4821892 0.0016066289 0.41784376 0.053181663 0.6918284 -0.38461187 0.33155176 0.34364355
-0.44606626 0.11384292 -0.09196694 0.072924726 -0.07670391 -0.2827733 -0.5215471 -0.23632818
-0.103522055 -0.45322326 -0.1161134 -0.2182738 -0.36898196 -0.39332807 -0.43454674 0.2851831
0.35050195 -0.22349784 0.70761985 -0.17820674 -0.07119549 0.24232946 0.08155357 0.46978855
-0.1693431 -0.07307014 0.38869157 -0.04074301 0.29037896 0.31030485 -0.8836054 0.2302352
-0.26875862 0.022331182 -0.4068662 -0.06510874 -0.39126432 0.34142014 0.3850804 0.106285684
-0.005073054 -0.054018363 -0.6223177 -0.5740721 -0.50602716 0.13970628 -0.22224538 -0.35630915
0.10225622 -0.30070445 0.27830112 -0.17092077 -0.4550062 0.018353647 -0.29730654 0.42885378
-0.22364675 0.109767646 0.19227327 -0.5056803 0.4896189 -0.1728053 -0.6253657 -0.033392943
0.13967723 -0.22072229 0.6893808 0.089361824 -0.41091904 0.4563724 -0.52328384 0.050025146

decoder.decoder_lin.0.bias f4 [128]
00000000: 85ab 12bf aa70 bb3d 5c64 00bf 600b 1fbf
00000010: 9d81 e73d 5a80 8b3d 5bae 5f3e 1c44 a6be
00000020: 096b 573d 3eee 8d3e 45e2 a63d 3d26 3b3c
00000030: f3b9 eb3c dc82 62be 9687 3dbd c71d acbd
00000040: b740 4f3e 1de6 08be 34e4 92bd 626d 8e3e
00000050: d455 90be 2d85 273e 2c6f d0be 3c40 b5be
00000060: 8b92 aebe cd8c 763e 98f2 c8bc 3eeb 873e
00000070: 70bc 203e 2e5b 7e3c 3fee c83d 11c1 84be
00000080: 2d11 10bf 5015 493e 9af3 1fbf ea10 e3be
00000090: 3fa6 2e3e f0c1 3e3e 659f 5fbe 44ad 923d
000000a0: 41eb 6d3e 86bc 903d a515 4c3e f37a 96bd
000000b0: 89fd 99be 8d0d edbe 8cf1 9abd 6efd 153c
000000c0: b6cd cc3c eee9 7fbe 7893 98be 5548 e4bd
000000d0: b26b eb3d 2133 bbbe a935 133e 09fb 9ebe
000000e0: 1a90 0bbf 8e3e f4be 67cf 863e 742e e3be
000000f0: d6fe 01bf f615 67be e1c1 abbe 3722 1fbf
00000100: bf8c 9ebe 6e73 1ebd a993 333e 04b7 233e
00000110: af62 a5be 71ab a3bc a1a5 7bbe 63d3 a83d
00000120: 81e5 8a3d 0c85 133e 3f27 36bb a3d9 4e3e
00000130: 8662 c63e 26bb 95bc 4a3c a03c 02a8 8ebd
00000140: e17f 8dbd 2c07 533e 0158 a7be 5b9e aebd
00000150: 7dbe 653d e666 4c3e e99d 10bf aafc 90bd
00000160: 27ce 8a3e cbe2 c6bd e3a0 773e 3ac3 c8be
00000170: 4ffd a3be 526e 60be 4590 b4bd 9e60 adbe
00000180: 5dc5 ae3d 1e66 83be 52df eebd 4440 f3be
00000190: fa34 a6be 555d 763e 8474 f93d e4c8 db3c
000001a0: 9a25 7c3e 5e50 ccbd 9b15 7cbe 6b61 b93e
000001b0: 67d8 f7be 1cd2 873e 85e9 923d dbcc cd3d
000001c0: 8f2e 163e 84c6 043e 4cd4 41be 3c3d a43e
000001d0: 6f00 91bd 8991 ffbd c66f 06bf e66e bebe
000001e0: 2df9 23bd 703c 563e 970f 0c3e 2f87 a23b
000001f0: 2829 503d 0daf 10bd 68f9 a13d 866f c63e
-0.5729297 0.09152348 -0.50153136 -0.6212673 0.11304019 0.068115905 0.21843855 -0.32473838
0.05259231 0.27720827 0.08148626 0.011422691 0.028775191 -0.22120231 -0.046271883 -0.08404117
0.2023953 -0.13369031 -0.071724325 0.27817827 -0.28190482 0.16359396 -0.40709817 -0.3540057
-0.34096178 0.24077149 -0.02452974 0.26546663 0.15696883 0.015524669 0.09811067 -0.25928548
-0.5627621 0.19637036 -0.6248108 -0.44348842 0.17055605 0.18628669 -0.21838148 0.07161954
0.23234273 0.07067208 0.19930132 -0.073476695 -0.30076244 -0.462994 -0.07565603 0.009154661
0.025000434 -0.24991581 -0.2980001 -0.11146609 0.114951506 -0.36562446 0.14375938 -0.310509
-0.54516757 -0.47703975 0.2633011 -0.44371378 -0.50779474 -0.22566971 -0.33546355 -0.6216158
-0.30966756 -0.0386843 0.17536797 0.15987784 -0.32301852 -0.01997921 -0.24574901 0.08243444
0.06782056 0.14406222 -0.0027794389 0.2020021 0.38747042 -0.018277716 0.019559998 -0.06965639
-0.069091566 0.20608205 -0.3268433 -0.08526298 0.056089867 0.19961128 -0.5649095 -0.07079442
0.27110407 -0.09711226 0.24182467 -0.39211446 -0.32029197 -0.21917084 -0.0881658 -0.33862776
0.08533738 -0.25663847 -0.11663689 -0.47509968 -0.32462293 0.24059041 0.12180427 0.02682919
0.24623719 -0.09976266 -0.24617617 0.36207137 -0.4840729 0.26527488 0.071734466 0.10048839
0.14666198 0.12966353 -0.18928641 0.32077968 -0.07080161 -0.124789305 -0.525143 -0.37193984
-0.040032554 0.20921493 0.13677822 0.004959963 0.0508205 -0.03532319 0.079088986 0.3875696
